…
  (conv2): Conv1d(128, 128, kernel_size=(3,), stride=(1,), padding=same)
  (maxpool2): MaxPool1d(kernel_size=2, stride=2, padding=0, dilation=1, ceil_mode=False)
  (conv3): Conv1d(128, 128, kernel_size=(3,), stride=(1,), padding=same)
  (maxpool3): MaxPool1d(kernel_size=2, stride=2, padding=0, dilation=1, ceil_mode=False)
  (fc): Linear(in_features=4096, out_features=5, bias=True)
)

Layer Information:
----------------------------------------------------------------
        Layer (type)               Output Shape         Param #
================================================================
         Embedding-1            [512, 256, 100]      40,000,000
            Conv1d-2            [512, 128, 256]          38,528
         MaxPool1d-3            [512, 128, 128]               0
            Conv1d-4            [512, 128, 128]          49,280
         MaxPool1d-5             [512, 128, 64]               0
            Conv1d-6             [512, 128, 64]          49,280
         MaxPool1d-7             [512, 128, 32]               0
            Linear-8                   [512, 5]          20,485
================================================================
Total params: 40,157,573
Trainable params: 157,573
Non-trainable params: 40,000,000
----------------------------------------------------------------
Input size (MB): 0.50
Forward/backward pass size (MB): 436.02
Params size (MB): 153.19
Estimated Total Size (MB): 589.71
----------------------------------------------------------------
…
